…
v4DKcqs/AAAAAAAAAAI/AAAAAAAAAB8/AE7X8AtVKzk/s64/photo.jpg","userId":"11982691815744842228"}}},"source":["myModel.summary()"],"execution_count":null,"outputs":[{"output_type":"stream","text":["Model: \"VGG16 Scratch\"\n","_________________________________________________________________\n","Layer (type)                 Output Shape              Param #   \n","=================================================================\n","input_5 (InputLayer)         [(None, 128, 128, 3)]     0         \n","_________________________________________________________________\n","block1_conv1 (Conv2D)        (None, 128, 128, 64)      1792      \n","_________________________________________________________________\n","block1_conv2 (Conv2D)        (None, 128, 128, 64)      36928     \n","_________________________________________________________________\n","block1_pool (MaxPooling2D)   (None, 64, 64, 64)        0         \n","_________________________________________________________________\n","block2_conv1 (Conv2D)        (None, 64, 64, 128)       73856     \n","_________________________________________________________________\n","block2_conv2 (Conv2D)        (None, 64, 64, 128)       147584    \n","_________________________________________________________________\n","block2_pool (MaxPooling2D)   (None, 32, 32, 128)       0         \n","_________________________________________________________________\n","block3_conv1 (Conv2D)        (None, 32, 32, 256)       295168    \n","_________________________________________________________________\n","block3_conv2 (Conv2D)        (None, 32, 32, 256)       590080    \n","_________________________________________________________________\n","block3_conv3 (Conv2D)        (None, 32, 32, 256)       590080    \n","_________________________________________________________________\n","block3_pool (MaxPooling2D)   (None, 16, 16, 256)       0         \n","_________________________________________________________________\n","block4_conv1 (Conv2D)        (None, 16, 16, 512)       1180160   \n","_________________________________________________________________\n","block4_conv2 (Conv2D)        (None, 16, 16, 512)       2359808   \n","_________________________________________________________________\n","block4_conv3 (Conv2D)        (None, 16, 16, 512)       2359808   \n","_________________________________________________________________\n","block4_pool (MaxPooling2D)   (None, 8, 8, 512)         0         \n","_________________________________________________________________\n","block5_conv1 (Conv2D)        (None, 8, 8, 512)         2359808   \n","_________________________________________________________________\n","block5_conv2 (Conv2D)        (None, 8, 8, 512)         2359808   \n","_________________________________________________________________\n","block5_conv3 (Conv2D)        (None, 8, 8, 512)         2359808   \n","_________________________________________________________________\n","block5_pool (MaxPooling2D)   (None, 4, 4, 512)         0         \n","_________________________________________________________________\n","global_average_pooling2d_4 ( (None, 512)               0         \n","_________________________________________________________________\n","dense_8 (Dense)              (None, 1024)              525312    \n","_________________________________________________________________\n","dense_9 (Dense)              (None, 20)                20500     \n","=================================================================\n","Total params: 15,260,500\n","Trainable params: 15,260,500\n","Non-trainable params: 0\n","_________________________________________________________________\n"],"name":"stdout"}]},{"cell_type":"markdown","metadata":{"id":"Ts7C2Q6-eqkc"},"source":["## [TASK] Compile Model\n","<font color='red' size=5><pre>Compile modelmu
…
